…
model.compile(loss='binary_crossentropy', optimizer=optimizer, metrics=['accuracy'])   #mean_square_error

print(model.summary())
# 添加早停
callback = EarlyStopping(monitor="val_loss", patience=10, verbose=0, mode='min')

h = model.fit(X_train, y_train, epochs=50, batch_size=256,validation_split=0.2,callbacks=[callback]) # 64 90 32

history = h.history
epochs = range(len(history['accuracy']))




Model: "sequential"
_________________________________________________________________
 Layer (type)                Output Shape              Param #
=================================================================
 embedding (Embedding)       (None, 3138, 32)          224

 bidirectional (Bidirectiona  (None, 3138, 16)         2624
 l)

 bidirectional_1 (Bidirectio  (None, 16)               1600
 nal)

 dropout (Dropout)           (None, 16)                0

 dense (Dense)               (None, 32)                544

 dense_1 (Dense)             (None, 1)                 33

=================================================================
Total params: 5,025
Trainable params: 5,025
Non-trainable params: 0
_________________________________________________________________
None
C:\Users\舒\AppData\Local\Programs\Python\Python39\lib\site-packages\keras\optimizers\optimizer_v2\adam.py:110: UserWarning: The `lr` argument is deprecated, use `learning_rate` instead.
…
