model = Sequential()
model.add(Embedding(top_words, embedding_vecor_length, mask_zero=True, input_length=max_review_length))
model.add(GRU(16)) # 128 16
model.add(Dropout(0.5))
model.add(Dense(32, activation='relu'))
model.add(Dense(1,activation='relu')) #sigmoid relu softmax
optimizer = Adam(lr=0.005) #5e-04



Model: "sequential"
_________________________________________________________________
 Layer (type)                Output Shape              Param #
=================================================================
 embedding (Embedding)       (None, 3138, 32)          224

 gru (GRU)                   (None, 16)                2400

 dropout (Dropout)           (None, 16)                0

 dense (Dense)               (None, 32)                544

 dense_1 (Dense)             (None, 1)                 33

=================================================================
Total params: 3,201
Trainable params: 3,201
Non-trainable params: 0
_________________________________________________________________
None
Epoch 1/200
5/5 [==============================] - 44s 7s/step - loss: 3.6741 - accuracy: 0.3966 - val_loss: 1.1044 - val_accuracy: 0.4040
Epoch 2/200
5/5 [==============================] - 40s 8s/step - loss: 1.0230 - accuracy: 0.3966 - val_loss: 0.7871 - val_accuracy: 0.4040
…
