…
print(len(scores))
print("Accuracy: %.2f%%" % (scores[1]*100))

plt.plot(epochs, history['accuracy'], 'b', label='Train accuracy')
# plt.plot(epochs, history['val_accuracy'], 'r', label='Val accuracy')
plt.show()
plt.plot(epochs, history['loss'], 'b', label='Train loss')
# plt.plot(epochs, history['val_loss'], 'r', label='Val loss')
plt.show()




Model: "sequential"
_________________________________________________________________
 Layer (type)                Output Shape              Param #
=================================================================
 embedding (Embedding)       (None, 3138, 32)          224

 lstm (LSTM)                 (None, 25)                5800

 dropout (Dropout)           (None, 25)                0

 dense (Dense)               (None, 32)                832

 dropout_1 (Dropout)         (None, 32)                0

 dense_1 (Dense)             (None, 1)                 33

=================================================================
Total params: 6,889
Trainable params: 6,889
Non-trainable params: 0
_________________________________________________________________
None
Epoch 1/300
12/12 [==============================] - 29s 2s/step - loss: 0.6931 - accuracy: 0.5074
Epoch 2/300
12/12 [==============================] - 16s 1s/step - loss: 0.6923 - accuracy: 0.5371
…
