Model: "sequential"
_________________________________________________________________
 Layer (type)                Output Shape              Param #
=================================================================
 dense (Dense)               (None, 64)                576

 dense_1 (Dense)             (None, 16)                1040

 dense_2 (Dense)             (None, 64)                1088

 dense_3 (Dense)             (None, 32)                2080

 dense_4 (Dense)             (None, 1)                 33

=================================================================
Total params: 4,817
Trainable params: 4,817
Non-trainable params: 0
_________________________________________________________________
Epoch 1/220
12/12 [==============================] - 1s 2ms/step - loss: 0.4322 - accuracy: 0.4575
Epoch 2/220
12/12 [==============================] - 0s 2ms/step - loss: 0.2762 - accuracy: 0.5493
…
